checkpoint.pth (torch_old, 45424 bytes, 8 tensors)

brain.0.weight f4 [64, 37]
00000000: 6dff 783d 2caa de3c aa65 9d3d d3fc d0bc
00000010: c240 643d 289f 21be edab babe 6e3e 173e
00000020: 6607 f83d c53f 243f 576d 7f3d c0e1 7dbe
00000030: 420d aebc 5a8e d9bc 799c 623e b87e a1bd
00000040: f87b d0bd 32c3 d5bc 7341 ebbb 4107 323e
00000050: a076 853c 9a62 56bd 9094 2f3c af07 b43d
00000060: 3c28 b43c a228 e1bd c387 09be 38e3 01ba
00000070: 0326 9d3e f13d bb3e eb27 b23d 1127 d7bd
00000080: bdab c03d 1e40 2dbd f9ab 563e f750 ae3c
00000090: cd61 c93a 2f25 043d 71ad 06bc 62d3 3c3c
000000a0: 251e a33d 1006 853d 895a 2c3e 180c 21bd
000000b0: a893 79bd 713e 363e a92e 84bc c77a 2f3c
000000c0: 1d47 c33c 5086 7ebd 954c 443d 7425 5f3c
000000d0: 32da ae3e 977b b9be 72e7 0dbe dbd7 00be
000000e0: c132 d4bf e973 0a3e ec12 293d 2d42 1a3e
000000f0: c7ea 413e 3af9 1f3e ec09 a03c 850d 58bd
00000100: 7296 ccbd 5727 4d3d 6fa3 27be 3201 103d
00000110: 8754 3d3d 78d5 1c3d 2061 19bd 5fd4 d73d
00000120: 0543 043c 6d97 51bb a9eb 9d3c c903 4bbe
00000130: 0a49 7a3c a127 51bd f970 debe e205 50be
00000140: cf4e 333e 6e56 4b3e 966b 1b3d f91d 0d3d
00000150: f26e 7e3b e488 2bbe 425e aa3d d0c6 00bd
00000160: 1f6e 2f3e fa53 553e 27cb 043e 3907 f5bd
00000170: 4140 163d ec81 bbbf 30f5 853b f6e4 993d
00000180: 8436 6ebd b844 91be f94f 9bbd f9c8 6cbe
00000190: a76e ad3d 7347 77bd 0386 bb3d 407c 8ebe
000001a0: 5a02 14be 0357 fa3d 3434 a0be aa22 2c3a
000001b0: 7979 ac3d 2d1b a83d 2b34 78bc b297 463c
000001c0: 99d9 25bd 64b6 463e 4a92 04be e99d e3bd
000001d0: 9571 493e 7862 77be 20e7 833d a14e 733e
000001e0: b7da 303e 17a2 023e f888 36bd 6b5b 073e
000001f0: 15ff 6cbd 2e86 d7bd bce9 fa3d 8401 76bd
00000200: 01fc a63d e130 cf3a f41f 9ebd dd93 9b3e
00000210: 2e31 8a3d 90e1 6c3b 5128 1bbd d0ec 2ebf
00000220: dd88 033e 7c22 32bd a6e0 a2bd 6ac0 f4bd
00000230: bb1b 42be d6f8 9d3c bbb3 aabd 089e 71bd
00000240: 88ef 503e 9ffa 903d 5104 923d c51b 1dbc
00000250: 7331 123d 88a9 0c3e 74ac e3bc dcee 563d
00000260: 4688 a33e 7962 fabd c70d 0e3e 796d 233e
00000270: 9e6f 1bbe 9bcd 58be a468 533e 19f7 4dbc
00000280: e347 a23d 7c8d e3bd 2b39 ac3e fa09 563e
00000290: e588 f7bd 71c5 c9bb 8274 80be 052c a9be
000002a0: b2df de3d b6cd 333e f909 a1bd e3f2 e93c
000002b0: 8efa 883e fbc8 07be 8f48 0bbe fd63 3cbd
000002c0: fb57 f33d 0e7e 8d3e 66e3 a03d 22aa f3bd
000002d0: 6122 39be 2256 6cbe 6689 8bbd 00bb ca3c
000002e0: dc83 81bc 0ec3 c23e 4b14 0dbf 3774 8cbe
000002f0: 81c2 eebe 8c05 f2bf 525c 4d3b a3b8 bd3c
00000300: 4e12 6dbd f402 b5bd e770 25be db42 3fbd
00000310: 2c78 febc b287 28bc f291 ddbd c912 04bd
00000320: a4f3 22b9 2c19 703d 56ba b53d 5f8c 0d3e
00000330: bcfe 4b3e 4273 5f3d f170 ff3a cc1e 793d
00000340: c305 3f3d 80e3 aa3d a4a3 383d 7ff2 d03d
00000350: c070 353d 3463 9f3d b4aa f93d 8683 b93d
00000360: b585 68bc 238a d53d ad6e 8d3d 259d 833d
00000370: 0bdc 123c f2c1 3e3c c78e 89bd 3666 4e3e
00000380: 66e6 a93d 1a81 443e d27e d13d ada6 6f3d
00000390: 161f 063e e1e2 08be 4957 a6be 3123 1bbf
000003a0: 450f 00bd c767 dbba 2840 b8bd 2492 1fbe
000003b0: 1015 0fbe 51a2 b5bc 6890 e6bc c440 a73d
000003c0: d4e4 ef3d ce76 563e 5f83 f53d a8ed fcbd
000003d0: 4aa4 4f3d c3d2 bb3d 3c2c e93d 374f a93e
000003e0: b3fe cebe 46a7 b53c d83f 16be 9858 87bf
000003f0: fd37 153e cba0 283d dfe4 5e3d 14a2 ecbb
0.060790468 0.027180754 0.076854065 -0.025511181 0.05572582 -0.1578337 -0.36459294 0.14769909
0.12110786 0.64159805 0.062360134 -0.24793148 -0.021246556 -0.026557136 0.22130002 -0.07885498
-0.10179895 -0.026094053 -0.007179433 0.1738558 0.016291916 -0.052340128 0.010716572 0.08790528
0.021991841 -0.10994078 -0.13430695 -0.00049548177 0.30693063 0.36570695 0.0869902 -0.10505498
0.094077565 -0.042297475 0.2096404 0.021278841 0.001536423 0.032262024 -0.008220063 0.011525007
0.07964734 0.06495297 0.16831411 -0.039318174 -0.06093183 0.17797257 -0.01613553 0.010710425
0.02383762 -0.06213981 0.047924597 0.013619769 0.34150845 -0.36227104 -0.1385782 -0.12582342
-1.6577989 0.13520779 0.04127781 0.15064307 0.18937217 0.15622416 0.019535981 -0.05274727
-0.09989633 0.050086346 -0.16370939 0.03515739 0.04622319 0.038289517 -0.03744614 0.105385534
0.008072619 -0.0031981126 0.01927741 -0.19825663 0.015276203 -0.051063184 -0.43445566 -0.20314744
0.17510532 0.19857189 0.0379444 0.034452412 0.0038823453 -0.16751438 0.083187595 -0.031439602
0.17131852 0.20832816 0.12968121 -0.11964268 0.03668237 -1.4649024 0.0040880665 0.07514374
-0.05815746 -0.2837274 -0.07583613 -0.2312354 0.08468371 -0.060370874 0.0915642 -0.2782917
-0.14454022 0.122236274 -0.31289828 0.00065664446 0.084216066 0.08208308 -0.015149157 0.012121128
-0.04049072 0.19405514 -0.1294643 -0.11114103 0.19672234 -0.24158657 0.06440568 0.23760463
0.17270933 0.12757145 -0.044564217 0.13218467 -0.057860453 -0.105236396 0.122516125 -0.06006004
0.08153535 0.0015807414 -0.07720938 0.30386248 0.067476615 0.0036145188 -0.037880246 -0.683301
0.12845178 -0.043489918 -0.079530045 -0.119507626 -0.18955891 0.019283693 -0.08335062 -0.0589886
0.20403874 0.07079052 0.071297295 -0.00958914 0.03569169 0.13736546 -0.027792193 0.052473888
0.31939906 -0.122258134 0.13872443 0.15959729 -0.15179297 -0.21172182 0.20645386 -0.01257112
0.079238676 -0.111109704 0.33637366 0.20902243 -0.120866574 -0.00615757 -0.25088888 -0.33041397
0.1088251 0.17558941 -0.0786323 0.0285582 0.26753658 -0.13260262 -0.13601898 -0.045993794
0.11882015 0.27635235 0.07855873 -0.11897685 -0.18079521 -0.23079732 -0.06813316 0.024747372
-0.015809946 0.3803944 -0.5510909 -0.27432415 -0.4663277 -1.8907943 0.0031335545 0.02315933
-0.057878785 -0.08838454 -0.1615635 -0.046694618 -0.031063162 -0.0102862585 -0.108188525 -0.032244477
-0.00015540287 0.058617756 0.088734314 0.13823079 0.19921392 0.054553278 0.0019488615 0.060820386
0.046636354 0.083441734 0.045077935 0.102025025 0.04429698 0.07782593 0.12190762 0.09058289
-0.0141920345 0.10426738 0.06905875 0.06426457 0.008963595 0.01164292 -0.06716686 0.20156178
0.08295898 0.19189873 0.10229267 0.058508564 0.13097796 -0.13367797 -0.32488468 -0.6060057
-0.031264562 -0.0016739302 -0.08996612 -0.15583092 -0.13972878 -0.022172125 -0.02814503 0.0816665
0.117135674 0.20943758 0.11987948 -0.12350017 0.050693788 0.09171059 0.1138539 0.3306825
-0.40428695 0.022174489 -0.14672792 -1.0573912 0.14572139 0.04116897 0.054417487 -0.0072214697

brain.0.bias f4 [64]
00000000: bf93 acbb 8800 273d 4e3c bf3d f333 5b3c
00000010: fdb9 0a3d 51ed 72bb bfdd 323e a777 0abe
00000020: 2668 b43c bb7d 743d d4cc b5ba 5d26 b33d
00000030: 8017 d43d edfc 4dbd 6298 61bd a93e b5bd
00000040: 94e3 b9bd 659f 16bd c7f9 943d 8ffd f3bc
00000050: 0f08 30be 10d1 633d 1995 093e ddf2 86bc
00000060: b869 103d bc07 a638 7099 093e cd0c a53d
00000070: 7d68 213e 2763 5c3e 5928 13be 16fb 8bbd
00000080: 4c0f 453d 15bc 9d3d 9ccc 0abd 63fd 8cbd
00000090: 090a e4bd b905 8f3d c7c6 913d 529c 463e
000000a0: 3483 193e 4244 5a3e 6a5e dc3d fa79 00be
000000b0: b220 093e f23a e33d 0323 e2bc 7701 e73b
000000c0: f95d 203d e09a 51bd 0411 07be 9aa8 82bc
000000d0: ac2e 063e 5694 82be b658 c7bd 581e b5bd
000000e0: 0831 85bd d9ac 41bc ff6d 1cbd 0c91 1f3e
000000f0: 3b25 933d 5dbc 4ebd 9808 34bd efa7 41bd
-0.005266636 0.04077199 0.09337674 0.013379085 0.03386878 -0.003706772 0.17467402 -0.13522206
0.022022318 0.05969022 -0.0013870248 0.087475516 0.10356045 -0.050290037 -0.055076964 -0.08849842
-0.0907661 -0.036773104 0.07274204 -0.029783992 -0.17190574 0.0556193 0.13435782 -0.016473228
0.03525707 7.9169375e-05 0.13437438 0.08059082 0.15762515 0.21522199 -0.1437086 -0.06835
0.04811029 0.077018894 -0.033886537 -0.06884267 -0.111347266 0.069835134 0.07117992 0.19395569
0.14991456 0.21315101 0.107601956 -0.1254653 0.13391379 0.11095227 -0.027604586 0.007049735
0.03915212 -0.05117309 -0.13190085 -0.015949536 0.13103741 -0.25503796 -0.09733717 -0.08843678
-0.065034926 -0.011820995 -0.038190838 0.15582675 0.071848355 -0.050472606 -0.04395351 -0.047279295

brain.2.weight f4 [64, 64]
00000000: 3dcb edbc f697 04be 8a70 26bd 0b50 263d
00000010: 2345 9e3a 5053 823d cc3e 2a3e 875d 23be
00000020: f76e 99bd a5fa 32bd 1c8c dbbd 927e e4bd
00000030: b3d1 613e 2a9a 9e3d 8d84 2ebe 999f f9bd
00000040: 2bfa 48be c389 d43c 18e8 a93d 7fb9 913d
00000050: 4b20 0fbd 6257 a93d d12c 9b3b 07f5 363e
00000060: 01a5 d43c 0924 8dbd b5fd b13d f04a 1dbe
00000070: 4406 513e 783a 103d 74af e73c 3d79 f1bd
00000080: 4c6e 24be 87a6 d63d b023 7dbd d48f 3b3e
00000090: eec6 9f3d 4448 bcba c1bf aebd aef0 87bd
000000a0: 903b f13d 3f09 bf3b 435a 00be 8d1c 88bd
000000b0: 3fa7 643e 974d 8dbd 483a 593e 0697 bbbc
000000c0: 833e f93c 74d0 1c3e 524a 49bd 494a be3c
000000d0: 02e8 d0bb 9050 8dbd 2a70 69be c5d0 0ebd
000000e0: 2e0a 513c 2c90 a03c 89d8 8c3d bed9 eabc
000000f0: a4f4 c8bd 05e5 c6bd cc57 04be fef3 bc3e
00000100: ed6e 1bbe 28eb 36be 0ce7 fcbd 9f87 a5bd
00000110: 5cc1 b6be 83e9 72bd 8f44 393e 8fb2 903d
00000120: 97b8 a9bd 68d9 3a3e bb25 fd3d de35 943d
00000130: 044e 79bd e91a 1bbd 585e 553d e8eb 6e3d
00000140: 1957 edbe ee59 053e c80b 7dbc 6b58 50be
00000150: d8e3 a4be f37d 983d 1a45 81bc 4194 453e
00000160: 2cf7 a1bd 394a 8abe 4b8f 24be 44d2 c53d
00000170: c88b 73bd 336f bcbe ee02 30be a5d3 9a3d
00000180: 15bd 5f3d 60aa 77be 9fed 0c3e 1c74 d5bc
00000190: bf04 62be 1718 cebd 72c4 0b3e e662 9bbc
000001a0: cf54 58bc 60f1 8d3d e644 513e f14b c1bd
000001b0: fbc5 843d 91cd 223e 336f d0be 5620 323e
000001c0: 1a48 e8bd 4e1f 6cbe 7214 99be ace0 50bd
000001d0: ca13 3d3e e441 d7bd 90de 473e 7283 bebd
000001e0: 8e9d 98be 9852 1abd 3889 033e 49df 8ebc
000001f0: 469c 9abd 07d1 7abe 3916 27be 8791 c1bd
00000200: f5d4 91bc 336a ecbd d8b1 123e 0099 323b
00000210: 6f8c 7c3d a1e4 883d 2a1d 8bbd 8f91 73bd
00000220: 8388 42bc 531a 723d 8390 6f3d 60db 653e
00000230: de47 37bd 73f3 f7bd 085e 2abd 5405 aebd
00000240: 7178 eb3d d562 15bf 4e51 71bc 4c69 7b3d
00000250: 0777 893e 235d 2f3e a8b4 b5be 2619 933d
00000260: 2aa9 9fbe 7e31 78be b348 28be ac34 89bd
00000270: b5dd 8c3d 8ace eebe 7afd 96bd a07a dfbc
00000280: 254b 1bbe 72d3 19be 76cc a9bd 4c0d 95be
00000290: d7d7 ec3d 9feb 16be a276 aabe bfba 77be
000002a0: 6f95 68be cbb2 42bd a5e5 a73d bbbf 813e
000002b0: cc3c 53be 15f9 813d 2553 06be cb1d 6c3d
000002c0: d704 03bc 6318 3bbe e5fe a6ba 4091 b73d
000002d0: 673b ddbd 777d 54bd a682 66be 58f6 c9bd
000002e0: 130d b83d 2312 65be 2547 073e ab3f 10be
000002f0: 82bd 8ebd eaba 03bd 9ea2 21be 3bde 8dbe
00000300: fde2 853d ced8 41be f1d3 4ebe 9a6a d4bc
00000310: 6ff4 cabd c515 acbe 1055 7bbe 2982 5e3e
00000320: fdce 243d ba2d 593e 6133 773e 7462 3cbe
00000330: b88f ff3d e08a bc3e 626f 81be ab31 53be
00000340: 8820 8d3e bcd9 36be 6742 d93d e19a cf3d
00000350: 344a bdbd 2d50 0dbc a2ad ffbd 67cd 61be
00000360: 50b8 ae3d 67ac 223e 921f 833b 0254 7a3d
00000370: 94da eb3d 503d ef3c 400e 3d3d 4e33 f2bd
00000380: 0106 e13d 568c 09be f413 8fbe 710b 85bc
00000390: d7ea 863c a921 873d 9083 1abd 6dc9 2b3e
000003a0: f7e6 4dbd 1ee7 a43d 1050 823e af8e 89bd
000003b0: a119 5abe 64b5 98be b646 62be df01 72be
000003c0: 012b a13d 135d d5bd 0a39 84bd c202 69bc
000003d0: a0fa 0dbe 69fc 033e 7edb 473e 8b1a 0a3e
000003e0: c125 97bc fa30 ccbd e1b8 dd3d be44 bbbd
000003f0: de6a d93d 2985 313e b761 d13d f7ec c7be
-0.029027576 -0.12948593 -0.04063467 0.04060368 0.0012075048 0.06363547 0.16625518 -0.15953647
-0.07491868 -0.043696065 -0.10720083 -0.11156954 0.2205265 0.07744248 -0.17042752 -0.12188644
-0.19626682 0.025944596 0.082962215 0.07115459 -0.034942906 0.0826862 0.004735567 0.17866908
0.025957586 -0.06891639 0.08690969 -0.15360618 0.20412546 0.03521201 0.028281905 -0.117907025
-0.160577 0.10480981 -0.061801612 0.18316585 0.07801615 -0.0014364799 -0.08532668 -0.06637703
0.11778939 0.0058299596 -0.12534432 -0.06646071 0.22329424 -0.06899565 0.21213639 -0.022899162
0.030425316 0.15313894 -0.049143143 0.023228781 -0.0063753137 -0.06900132 -0.22796693 -0.034867067
0.012758775 0.019599997 0.06877238 -0.02866828 -0.098122865 -0.09711651 -0.12924117 0.369049
-0.15179034 -0.17863142 -0.12348756 -0.08082508 -0.35694396 -0.059304725 0.1809256 0.07065307
-0.08287161 0.18246996 0.12360712 0.07236837 -0.060865417 -0.03786746 0.052091926 0.058330446
-0.46355513 0.13022587 -0.015444703 -0.20346229 -0.3220508 0.07445898 -0.01578002 0.19294836
-0.079084724 -0.27009752 -0.16070287 0.096592456 -0.059459478 -0.36803588 -0.17188618 0.07559899
0.054623682 -0.24186087 0.1376252 -0.026056342 -0.22072123 -0.100631885 0.13649157 -0.018968057
-0.013203814 0.06930804 0.20436439 -0.09438313 0.06483074 0.1589873 -0.40709838 0.17395148
-0.11341877 -0.23058817 -0.2989841 -0.050995514 0.1846458 -0.105106145 0.19518495 -0.09302415
-0.29807705 -0.037676424 0.12845314 -0.017440455 -0.07549338 -0.244938 -0.16317071 -0.09451585
-0.017801741 -0.115436934 0.14325655 0.002725184 0.061657365 0.066842325 -0.06792672 -0.059464987
-0.011873367 0.059107136 0.058487426 0.22446966 -0.044746272 -0.12106981 -0.04159358 -0.0849711
0.11497582 -0.5835393 -0.014728857 0.061379716 0.26848623 0.17125373 -0.35489392 0.07182531
-0.3118375 -0.2423763 -0.16433983 -0.066994995 0.06878225 -0.46641952 -0.073725656 -0.027280152
-0.15165384 -0.15022066 -0.08290951 -0.29111707 0.11564606 -0.1473832 -0.33293635 -0.24192332
-0.22713254 -0.04753379 0.08198098 0.2534159 -0.20628661 0.06346337 -0.13117655 0.0576456
-0.007996759 -0.18271022 -0.0012740759 0.08963251 -0.10802346 -0.051877465 -0.22510776 -0.098614395
0.08986869 -0.223702 0.13210733 -0.14086787 -0.069697395 -0.032160677 -0.1578469 -0.2770861
0.06537435 -0.1893036 -0.20198037 -0.025929738 -0.09909903 -0.3361036 -0.24544168 0.2172934
0.040236462 0.2120885 0.24140693 -0.18396932 0.12478584 0.36824703 -0.2528029 -0.20624416
0.27563882 -0.17856497 0.10608368 0.10136963 -0.09242669 -0.008625072 -0.1248429 -0.22051011
0.085312486 0.15886079 0.004001566 0.061115272 0.115163 0.02920404 0.046156168 -0.11826192
0.10987473 -0.1343244 -0.2794491 -0.016240807 0.016469402 0.06598217 -0.037723124 0.16776057
-0.050269093 0.080518946 0.25451708 -0.06716668 -0.21298839 -0.2982589 -0.22097287 -0.23633526
0.078695305 -0.10418143 -0.06456192 -0.014221849 -0.13865137 0.12889256 0.19517323 0.13486688
-0.01845062 -0.09970279 0.108262785 -0.09143971 0.106160864 0.17335953 0.10223716 -0.39047977

brain.2.bias f4 [64]
00000000: 4a39 2f3e ec58 efbc 5d99 da3b 78dc c0bd
00000010: 047d 5f3c 1e73 9dbd ea79 9c3d 94e9 173e
00000020: 1c93 203d 27b5 b23d 68e7 06be b6d0 00be
00000030: cc93 b23d 409c fc3b 78cc a0bc 4cde c6bd
00000040: 64d5 5f3d 5742 1e3e 66d7 8b3d a57c e23d
00000050: f67e 00be cc94 d9bd 4821 03be 58d6 29bd
00000060: 6e3c aabb 442e 263e a8ee b03c 8696 2cbe
00000070: 02d3 4d3d 935d 0c3e 0247 8ebd 1874 49bd
00000080: ddc2 f03d cf3c 41bc 8426 bfbb 21fc 223e
00000090: 2bc8 c1bd f574 343e 7c42 403e 8695 99bc
000000a0: e674 f0bd e854 023c 518e ad3d 191e d23a
000000b0: 2cfd 433d e465 3f3d 72f6 1abe b6ec 413e
000000c0: 81da afbd 928c 0abe 3126 7abd b626 cc3b
000000d0: fd97 f93c 6019 a63d 9828 e9bc b3b3 a53c
000000e0: a11a 47bd 706c 33bc 0768 db3d 6651 9dbd
000000f0: 24db d03c e482 8dbd 94fb 2e3e 1c3d 00be
0.17111698 -0.029217206 0.0066711144 -0.09417051 0.013640646 -0.076879725 0.07640441 0.14835197
0.039202794 0.08725958 -0.13174212 -0.12579617 0.08719596 0.007709056 -0.019628748 -0.097103685
0.054646865 0.15454994 0.06828193 0.1105893 -0.12548432 -0.10624084 -0.12805665 -0.04146418
-0.005195192 0.16228586 0.021598175 -0.16854295 0.05025006 0.1370757 -0.069471374 -0.04918298
0.11755917 -0.011794283 -0.005833449 0.15916492 -0.09462007 0.1762274 0.18775362 -0.018748056
-0.117410466 0.007954814 0.0847441 0.0016030698 0.047848865 0.04672803 -0.15133074 0.18937954
-0.08586598 -0.13530186 -0.06107158 0.0062302006 0.030467981 0.08110309 -0.02846174 0.020227289
-0.04860938 -0.0109511465 0.10713201 -0.07681541 0.02549512 -0.06909731 0.17088157 -0.12523311

brain.4.weight f4 [64, 64]
00000000: 4816 f9bc 2878 3a3c a437 3f3e 2a2f 88bd
00000010: 7df3 ecbc 4406 75be 4a71 c73d 096e 5e3e
00000020: ca47 a0be 7dd8 8bbc e3f3 8cbe bbdf 8b3d
00000030: bf08 efbc 9227 90be afec 5e3d a651 123d
00000040: 8c0b 15bb 9df0 093e 6e44 84be f4e1 173e
00000050: 3e36 963d b231 93be 510e 113e 0384 ebbc
00000060: 43ec 8d3c e251 273e fb0b a73d 4484 0b3c
00000070: 20b0 8f3e 9537 da3e c1a6 2cbb e366 ba3d
00000080: 3766 ecbd 61a8 c23c c03c 98be 9e83 333d
00000090: defc b53d 5b3b 14be f0a4 2f3d 2f16 e23d
000000a0: 600a d63c ac6d d6bd b492 88bd 41cf 5cbe
000000b0: 313a 863e 10d0 603e f392 ecbd 88ad 26bd
000000c0: 98b6 b63e 57c7 3b3d 9c9c 54ba 09e9 cfbd
000000d0: 085d 15be 722e 5b3e 807a d13c dda2 9a3d
000000e0: c55b fb3d 80fe 65be f6c4 443e 92d2 bb3d
000000f0: a4ba 663e 1506 4d3d cf4f f03d 3674 513e
00000100: 8e98 b4bd c2b6 38bd 1452 09bd 6d2e e43d
00000110: 141a 713d 41c9 223e 4cd0 b5bd abae 003e
00000120: d0e7 903d 22c9 92bc d8b6 bfbd c202 a7bd
00000130: 6786 5e3e abea ee3c 6e31 78be 8025 303d
00000140: af40 b73e 61c7 393d 9800 8a3e f4f9 25be
00000150: 5073 69be 46d5 b73d 53df 6f3e 420f bfbe
00000160: b733 d53c bd1c 053e 6df4 b0bd cf51 02be
00000170: d1a8 86bd 714f afbd 662b 4c3e 44c7 6c3c
00000180: fcae 943e a9c8 f4bd 8f03 cfbe 8b6c 28be
00000190: d81d 05be f9cc 12bd 7630 1abe 88a6 353e
000001a0: 16f2 a1bd 37f6 76bd 3201 51bd 8c00 56be
000001b0: 3e03 523e bd87 aa3d 5084 c83c 9afd c6be
000001c0: ffb7 06be 9799 b43c 5ad6 7dbd 2aee 2abd
000001d0: 90df a2bb 84ec 25bc c6f3 24bd eb19 c5bd
000001e0: 9070 0a3c 2d28 9b3e eeea 193e 50f5 223e
000001f0: d7e8 6b3e 6b5b 403d 43a6 8dbe 0555 bfbd
00000200: 74b2 ea3d 5136 12bd c25e b9bd 074d 203c
00000210: 8794 cdbc 3a44 24be 7861 c83d 2f91 fcbd
00000220: dc97 d0bd 11ac f23d 6808 2cbe 59d3 3bbd
00000230: 7fd8 903d ffdb 2b3e 2bff 0abd 34f8 1dbd
00000240: e995 a43d 42e8 0a3d 7e8a c3bd 6969 11bc
00000250: 3609 bdbd bf46 2b3e d60f c53e 0819 44be
00000260: 607b e3bd 821b f3bd 16c0 2cbc 882a c53c
00000270: 7580 f23d ee01 e0bb 6cb8 babd 07ad 71be
00000280: 81fb 98bd e379 ee3c 2673 26bd a387 82bc
00000290: a8c5 febd 5a4c 703d 6dc4 24bd 5e73 25be
000002a0: 9c81 543e 53d9 d13d 88d6 c83d e4eb 80bd
000002b0: 3156 db3c ca2a b53d 220f a7bd bc71 023c
000002c0: df0d 57be 7a68 893d 84f2 62bc ac1f 8cbd
000002d0: 4f07 b7bd ea04 28be 9858 3e3d 3cc0 13be
000002e0: 2d20 ff3d 838d a53d 5706 883d 21d2 0abe
000002f0: 5513 52be ca98 57bc 2184 89bc c923 49bd
00000300: c86d 653d 2387 ddba 1f67 91be 5feb 92be
00000310: f7c9 55bd ac8a aabb 1529 163e 43a0 923d
00000320: 4cb8 9bbe a940 e8bd f1bb a6be 5914 173d
00000330: 5245 2d3c e84a 663e 3009 22be 156c cd3c
00000340: 98c9 30be 1b1a ef3d b937 de3d a96b 6b3e
00000350: 8454 163e e553 b3bd db76 143e 8eba 483b
00000360: 4e92 6f3e a329 4a3e 4a16 2fbd 3795 553e
00000370: aa2b 88be 896f 8fbd 270e 2c3d a024 463e
00000380: 71bd 59be 3a5e 01be 073f eabe 50a4 453d
00000390: 1d11 f03d 5ff9 d8bd 6954 44bc cb80 233e
000003a0: 3235 1cbc f0f5 733b 57a4 ddbc dbf1 ce3c
000003b0: a43c ec3c ce26 443d 662a 373d 450d 27be
000003c0: e534 973e acaa 27bd a240 003e 1c39 5ebd
000003d0: 2f82 e0bd 7c40 233e 6682 21bd 5dbe b0be
000003e0: 1887 763c f574 06be dc96 313e 0ab0 473e
000003f0: 3f91 8e3d 8be0 eb3d c422 0b3e dc43 f23d
-0.030406132 0.011381187 0.18673569 -0.06649621 -0.028924698 -0.23928171 0.09738405 0.21721663
-0.3130477 -0.017071003 -0.2752982 0.068297826 -0.029178975 -0.2815519 0.054424938 0.035722397
-0.0022742478 0.13470693 -0.25833458 0.14832288 0.073345646 -0.28748852 0.14165618 -0.028749472
0.017324572 0.1633983 0.08156582 0.008515421 0.2806406 0.4262053 -0.002634451 0.09101655
-0.115429334 0.02376193 -0.2973385 0.04382669 0.08886121 -0.14475767 0.042881906 0.110393874
0.026127994 -0.10470137 -0.066686064 -0.21563436 0.26216272 0.2195437 -0.11551466 -0.040692836
0.35686183 0.045844402 -0.0008110495 -0.1015187 -0.1458627 0.21404436 0.025571108 0.07550595
0.12273363 -0.22460365 0.1921576 0.091710225 0.22532135 0.05005463 0.11733972 0.20454487
-0.0881816 -0.045096166 -0.03352554 0.111416675 0.05886276 0.15897085 -0.0887762 0.1256663
0.07075465 -0.017918173 -0.093610466 -0.08154823 0.21730958 0.029164633 -0.24237606 0.043004513
0.35791537 0.04535616 0.26953578 -0.16208631 -0.22797894 0.089762256 0.23425035 -0.37316328
0.026025636 0.12999244 -0.086403705 -0.1272652 -0.06575168 -0.08560074 0.1993843 0.0144518055
0.29039752 -0.119523354 -0.40432402 -0.16447656 -0.12999666 -0.03584001 -0.15057549 0.17739308
-0.07907502 -0.060293403 -0.05102653 -0.20898646 0.2050905 0.08326671 0.024477154 -0.38865358
-0.13156126 0.022045894 -0.061972 -0.041731037 -0.0049704984 -0.0101271905 -0.040271543 -0.09624084
0.008449689 0.3030409 0.15031025 0.15913892 0.2303804 0.046962183 -0.2766591 -0.09342388
0.114598185 -0.03569633 -0.09051277 0.00978399 -0.025095237 -0.16041651 0.09784216 -0.12332379
-0.10185215 0.11849225 -0.16800082 -0.045855854 0.07072543 0.1678314 -0.033934753 -0.038566783
0.080364056 0.033912905 -0.095479 -0.008875229 -0.092302725 0.16726206 0.38488644 -0.19150174
-0.11107516 -0.11870481 -0.010543844 0.024068132 0.118409075 -0.0068361675 -0.09117207 -0.23601161
-0.074698456 0.029110854 -0.040637158 -0.015933817 -0.12440044 0.058666565 -0.04022639 -0.1615729
0.20752567 0.102465294 0.098065436 -0.062949926 0.026774498 0.08846052 -0.08157183 0.007961687
-0.21001385 0.067093804 -0.013851766 -0.068419784 -0.08936941 -0.16408125 0.04647121 -0.144288
0.12457309 0.08083632 0.06641834 -0.1355672 -0.20515187 -0.013158986 -0.016786637 -0.049106393
0.0560129 -0.0016901236 -0.28398988 -0.286952 -0.05219456 -0.0052045193 0.14664109 0.07159474
-0.30414045 -0.11340458 -0.32565263 0.03688464 0.010575609 0.22489512 -0.15823817 0.025075952
-0.17264402 0.11674901 0.10850472 0.22990288 0.14680678 -0.08756236 0.14498465 0.0030628773
0.23395655 0.19742446 -0.042745866 0.20857702 -0.26595813 -0.070036955 0.042005684 0.19349909
-0.21263672 -0.12633601 -0.4575121 0.048252404 0.11722014 -0.10594439 -0.011983016 0.159671
-0.009534167 0.0037225448 -0.027055902 0.02526181 0.02883751 0.04788857 0.04471817 -0.16313656
0.29532543 -0.04093425 0.12524655 -0.054253682 -0.109623305 0.15942568 -0.039431 -0.34520236
0.015046857 -0.13130553 0.17342705 0.19500747 0.06961297 0.115174375 0.13587481 0.118293494

brain.4.bias f4 [64]
00000000: eddd 1a3e e554 9e3d 1f16 febd f0a5 f9bd
00000010: 87d9 1fbd 86f1 a33d 3655 fb3d 2986 703e
00000020: be8d 6e3d d8b0 c2bd 6e9d 84bd 54e9 29be
00000030: 6890 af3e c1d2 4bbd 4cf3 943e 5126 e73c
00000040: b8af 1c3d b8a8 b73d 976c 883e 974e 113e
00000050: c090 713d 7581 8f3d 0b28 713d ff6e df3d
00000060: 3052 283c 501f 3dbc bcc9 023e 84c6 903e
00000070: a392 e3bd 2e74 923d f93b 933d 17c0 b8bd
00000080: ed35 3fbe 01d8 223e 4437 8ebc efa1 99bd
00000090: 469c 193e 3c6f 9b3e 15e8 b1bd fd4d b13d
000000a0: d6aa c23d 68a7 0c3e c521 74bd e63e 2dbe
000000b0: d292 973e f548 273e e42b 013d 1e55 8c3d
000000c0: 68bf cf3e 7815 c4bd a5ab bf3d d179 4a3d
000000d0: bd5f af3c 6a95 7ebe 1e4e d0bd c7e6 e2bd
000000e0: 56c4 4ebe a600 9a3e 3fb3 11be 4980 bf3e
000000f0: 94ad f8bd 2703 673d ab04 37bd be63 c63d
0.1512372 0.07731036 -0.12406563 -0.12189853 -0.03902581 0.08005051 0.12272112 0.23488678
0.058240645 -0.095063865 -0.0647534 -0.16592914 0.3428986 -0.049761537 0.2909187 0.028216513
0.038253516 0.089677274 0.26645347 0.14190136 0.058975935 0.07007114 0.05887608 0.10909843
0.010273501 -0.01154311 0.12772268 0.28276455 -0.11111953 0.07151066 0.07189173 -0.09021013
-0.18672915 0.15902711 -0.017360337 -0.075015895 0.1500102 0.30358303 -0.08686844 0.08657453
0.095052406 0.13735735 -0.059602518 -0.16918525 0.29604203 0.16336425 0.031535998 0.06852172
0.4057572 -0.09574407 0.093589105 0.04943258 0.021407956 -0.24861684 -0.1017115 -0.110791735
-0.20192084 0.3007862 -0.14228533 0.3740256 -0.121424824 0.05639949 -0.044682186 0.09686993

brain.6.weight f4 [4, 64]
00000000: 11ca e93d c8a6 683e 1234 ebbd 6068 8abe
00000010: 965f 2abd 401e 693e b6b2 d93d 85d0 a33d
00000020: b4c8 cebb 90ac 3bbe 19b1 39be c017 1a3d
00000030: 6aab 7f3e 1397 1fbe 9d46 803e aeb1 75bd
00000040: da73 36be b1fe cd3d 1fec 283e 9154 6b3d
00000050: db8d dfbd 28f6 f4bd 5146 1c3d edfa 303e
00000060: 512f f43d 1692 803e 0b00 0d3e 81cf 983d
00000070: a06e 2cbd ac7c bfbe b5af b23e 57ea 1abd
00000080: cb3c e1bc 0472 2d3e f863 3cbe 6903 33bd
00000090: c49b f9bd 1f06 503e 70c7 a43c 559f 273e
000000a0: e143 69be 3b7e 073f e036 a83e dc68 0fbe
000000b0: fb6a d53d ff50 963d 6706 113e cb24 163d
000000c0: 1e78 7a3e 4131 703d a451 033e a686 de3e
000000d0: 3c51 823c 80d0 1cbe ce09 f83d d595 4a3d
000000e0: 49c5 cfbd 507d 513e c4ed 0f3c b8d7 e63d
000000f0: 55a2 a4bc d55f 5ebd 8a64 d1bd 0127 b3be
00000100: 3cbe 8f3e cab0 c2be 2b8c 403d 3dd8 7cbe
00000110: f9f2 55be baa1 1b3e 58d9 6f3d 3172 363e
00000120: bf92 ad3c 72f6 58be 9d68 b53d 1ff1 d1bd
00000130: 3cf1 323e 57a2 a4be 5464 1d3e 4bfb 16be
00000140: b7f4 173e 0559 ce3d 6207 7e3d c121 9e3d
00000150: 6558 35be 59e4 8abe 3952 b7be 8933 de3d
00000160: 96ef 683e 3a5f b83e 6abe 283e 14da 373e
00000170: 3f5e 2bbe 0968 623e 0f80 c33e e1a9 9e3c
00000180: 6170 ec3d d321 463e cf73 3e3e 5417 ca3d
00000190: f114 663d 8e8c d23d 2fe9 523d 05b9 193e
000001a0: 2f31 a3bc 96cd a73e 8414 7b3e bdcb 10bc
000001b0: eda0 5f3e 6efb 2e3e f849 533e da66 cfbd
000001c0: 2d2a 113e 7589 9bbe ff3c ce3d 1c70 b13e
000001d0: ff20 8b3e 5348 2dbd 9f70 293e 305c e03c
000001e0: a12f 8fbe 27c9 673e ee45 813d 3b0e 1b3e
000001f0: 91c9 de3c eca7 293e f24f 463d 3499 efbe
00000200: 0e96 7f3e f46a 773c b952 6ebe 92ee aa3d
00000210: 1eb5 fc3d 454d 413e bb9e 673c afa6 d83d
00000220: dfb0 7b3e 8b60 69bb 3e06 4abe b8c1 803d
00000230: 7cd3 7d3e c8e3 b4be 8357 c23a b4e8 35bd
00000240: 2f00 4a3e 2614 443e 2a8d 533e f987 0e3d
00000250: 7531 fa3d 0002 db3e de77 ffbe 6690 b13d
00000260: 1d4d 123e 2de7 493c d195 8abe e575 ce3d
00000270: c694 243e 42a4 e5bd 211f b13b 24df 633d
00000280: 5530 483e 2156 c8bc 8c07 6dbe 6e1b 863e
00000290: 8bea 533d b295 2b3e ba31 d03d 780e b93e
000002a0: 74da 613e 0711 c83e 0f52 0c3e 457a 423e
000002b0: 1fc3 593b 8a68 cd3d f26e 82be dddd e1be
000002c0: bf39 313e f5e1 10be 7f39 76bd 3497 d4bd
000002d0: fa33 dc3e 8136 00bf 5fc5 66be 4858 363b
000002e0: f4a8 6fbe 06d1 413e 18f3 db3c 74a8 993e
000002f0: 5c8d 9d3e 5ee7 1ebe a91d 393e 4655 1ebe
00000300: 44ab 463e 92d5 4fbe 1ae5 8f3c 43ac 5a3e
00000310: f3cf ccbe 5af6 ec3d 41d6 5c3e 2976 3d3d
00000320: 678b 11bb bcd9 b13c 9239 0dbc 759c d33d
00000330: 8329 293c 2fac e23b 0844 013e dcd0 14bc
00000340: 89fe 5cbd ee2b 493e 05d0 533e 63c5 073e
00000350: 5c0d 163e 82ed 03bf ff43 9abe 736b 653e
00000360: 4e17 4a3d 8b7b a83e f741 d0be f9b3 2e3e
00000370: 8087 6abe 0b16 a1be 223c c03e fad1 a03d
00000380: 289b dbbe a31d 903c 06a5 b0bc c3fe 4f3e
00000390: d006 493e 5f06 b43d 5553 de3d 3f5a c93d
000003a0: 30a6 ccbe f6cf 583e f06f e13e 156e 9ebe
000003b0: ec14 663e d81e 8d3e adb5 adbe 5a5f 833e
000003c0: 78fe 873e aa7a 8abe b281 6d3e 125d d73e
000003d0: b8b7 27be bb1d f8bd 7365 16be 237d 0cbd
000003e0: 6357 38be 7652 d33c f2e3 dcbc 4933 af3e
000003f0: 2131 8e3e 476d e53d ddb0 453e b86f 49be
0.11415494 0.22719872 -0.11484541 -0.27032757 -0.041595064 0.22765446 0.106297895 0.07998756
-0.006310547 -0.18327546 -0.18133964 0.037620306 0.24967733 -0.15584974 0.25053874 -0.0599839
-0.17817631 0.10058344 0.16496323 0.057453696 -0.10915729 -0.11961013 0.038152996 0.1728322
0.119230874 0.25111455 0.13769548 0.07461453 -0.042097688 -0.37399805 0.3489968 -0.03782114
-0.027494809 0.16938025 -0.1839751 -0.043704424 -0.12187913 0.20314835 0.02011463 0.16369374
-0.227798 0.5292699 0.32854366 -0.14004844 0.104207955 0.073396675 0.14162599 0.036656182
0.24459884 0.058640722 0.12824112 0.43462104 0.015907876 -0.15313911 0.12111245 0.049459297
-0.10145051 0.20457959 0.008784715 0.11271614 -0.020096937 -0.05429061 -0.102242544 -0.34990695
0.28074825 -0.38025504 0.047008675 -0.24691863 -0.20893468 0.15198413 0.058556885 0.17816998
0.021188138 -0.21187761 0.08857844 -0.10251068 0.17474836 -0.32155105 0.15370303 -0.14744298
0.14839445 0.10075573 0.06201876 0.07721282 -0.17709501 -0.2712734 -0.35804918 0.10849673
0.22747645 0.36010152 0.16478887 0.17954284 -0.16735171 0.22109999 0.38183638 0.019368114
0.11544872 0.1934884 0.18598865 0.09867731 0.056172315 0.10280715 0.051491912 0.15011986
-0.019920914 0.32774037 0.24519545 -0.0088376375 0.21838732 0.170881 0.20633686 -0.10127039
0.14176245 -0.3037831 0.10070228 0.34655845 0.27173612 -0.042305302 0.16546868 0.027387708
-0.27966025 0.22635327 0.06312166 0.15142147 0.027195724 0.16567963 0.048416086 -0.46796572
0.24959585 0.015101183 -0.23273744 0.08346285 0.12339233 0.18877132 0.014136965 0.10578667
0.2457919 -0.0035610523 -0.19728944 0.06286949 0.24787706 -0.35330033 0.0014827106 -0.044411376
0.19726633 0.19148311 0.20659319 0.034797642 0.122164644 0.42774963 -0.4989614 0.0867012
0.14287229 0.012323183 -0.27067426 0.1008108 0.16072378 -0.1121297 0.005405322 0.055632725
0.19549687 -0.024455132 -0.2314741 0.26192802 0.05173735 0.16756323 0.101657346 0.3614385
0.2205599 0.3907549 0.13703178 0.18991955 0.0033227874 0.10029705 -0.2547527 -0.4411458
0.17307185 -0.14148696 -0.060113426 -0.10380402 0.43008405 -0.50083166 -0.22536229 0.0027823616
-0.23404294 0.18927392 0.026849315 0.30011332 0.3077191 -0.15517947 0.1807772 -0.15462217
0.1940127 -0.20296314 0.017565299 0.21354775 -0.40002403 0.11570425 0.21566106 0.046255264
-0.0022208334 0.02171027 -0.008619683 0.10332576 0.010324839 0.0069174985 0.12623608 -0.009082999
-0.05395368 0.19645664 0.20684822 0.13258891 0.14653534 -0.51534283 -0.30130002 0.2240427
0.04933863 0.32906756 -0.40675327 0.17060842 -0.22903252 -0.3146213 0.37545878 0.0785255
-0.42891812 0.017592257 -0.021563064 0.20312028 0.19631505 0.08790278 0.10855738 0.09831666
-0.3997054 0.21173081 0.44030714 -0.3094336 0.22468919 0.27562594 -0.3392767 0.25658685
0.26561332 -0.2704671 0.23194006 0.42063195 -0.16378677 -0.12115046 -0.14687137 -0.034299027
-0.18002085 0.025796156 -0.026964162 0.34218815 0.27771857 0.112024836 0.19305749 -0.19671524

brain.6.bias f4 [4]
00000000: f2e3 803e 539f 413e df46 763e edb2 363e
0.25173908 0.18908434 0.24050473 0.17841692
